models/pytorch/model/model.pt (torch, 141127 bytes, 6 tensors)

conv1.weight f4 [32, 1, 3, 3]
0	0xbd411666	-0.0471405
1	0xbdf73098	-0.120698154
2	0x3e9a2593	0.30106792
3	0xbe893695	-0.26799455
4	0x3ed0568d	0.40691033
5	0x3e67c625	0.2263418
6	0x3e57e6c2	0.21084121
7	0xbe2d266e	-0.16909191
8	0x3e8fbad2	0.2807222
9	0x3e8dfa6e	0.27730125
10	0xbb5700ee	-0.003280695
11	0x3e8d9768	0.27654576
12	0xbe231b41	-0.15928365
13	0x3ea3d540	0.31998634
14	0x3e962847	0.29327604
15	0xbeb64d10	-0.3560567
16	0xbeb5bd29	-0.3549588
17	0xbe2cd12e	-0.1687667
18	0x3ea71ac1	0.326376
19	0xbdd6c139	-0.10486073
20	0x3e9b59cf	0.30341956
21	0x3e6ba6e5	0.23012884
22	0x3e7b9754	0.24569446
23	0x3ecf5826	0.4049694
24	0x3d0d4464	0.03448905
25	0x3e413104	0.18866354
26	0x3ea16a5c	0.31526458
27	0xbe7d217b	-0.24719803
28	0x3e96e370	0.29470396
29	0x3e87d659	0.26530722
30	0x3eab0a8c	0.33406484
31	0xbd8affcc	-0.06787071
32	0x3e69f411	0.2284701
33	0xbd2fe50a	-0.042943038
34	0x3d2870ee	0.041123323
35	0xbe60826b	-0.2192475
36	0xbe7f36ff	-0.24923323
37	0xbe30fb1e	-0.17283294
38	0x3c3197d2	0.010839419
39	0xbdf1f32e	-0.11813961
40	0xbec50dcc	-0.3848709
41	0xbc608d9d	-0.013705638
42	0x3e2f3230	0.17108989
43	0xbd9b83e6	-0.07593517
44	0xbe966f22	-0.29381663
45	0xbe74b87b	-0.23898499
46	0x3eb7a1b1	0.35865548
47	0x3dddf000	0.10836792
48	0xbea98f4a	-0.33117133
49	0xbcf6417b	-0.03006052
50	0xbdf9bb8d	-0.121939756
51	0x3d52185c	0.051292762
52	0x3e35570f	0.17708991
53	0x3d973e46	0.073849246
54	0x3ed2df45	0.41185966
55	0x3e75d81b	0.24008219
56	0x3eb05a56	0.3444392
57	0xbe752b09	-0.23942198
58	0x3e817e31	0.2529159
59	0x3e9a186f	0.30096766
60	0xbe947d5b	-0.2900189
61	0xbea4ad37	-0.32163402
62	0xbebc9391	-0.36831334
63	0x3ea22ac4	0.31673253
64	0x3e37de64	0.17955929
65	0x3e3da3d9	0.18519534
66	0x3e15db8b	0.1463453
67	0x3edb6a64	0.42854607
68	0x3e9d81b4	0.30763018
69	0x3e110aca	0.14164272
70	0xbdbd89d9	-0.09254808
71	0xbcd4cba9	-0.025976019
72	0xbde47450	-0.11154997
73	0xbe213870	-0.15744185
74	0xbe8c1b12	-0.27364403
75	0x3c461056	0.012088856
76	0xbdeb0250	-0.114750504
77	0xbd803300	-0.062597275
78	0xbe83907a	-0.25696164
79	0xbe2b99a6	-0.16757831
80	0xbe85fa52	-0.26167542
81	0x3e49efae	0.19720337
82	0x3e1f402e	0.15551826
83	0x3ec88eae	0.39171356
84	0xbe6b6fc9	-0.22991861
85	0x3ec68919	0.38776472
86	0xbdcffc49	-0.101555414
87	0x3ea5d93f	0.32392308
88	0xbe8c7f4f	-0.2744088
89	0x3e5977f8	0.2123717
90	0xbd96c18e	-0.073611364
91	0xbe874419	-0.26419142
92	0x3e381c8d	0.17979641
93	0xbe609ec9	-0.21935572
94	0xbe8c9b6a	-0.27462322
95	0x3e8ac000	0.2709961
96	0xbe13c978	-0.14432323
97	0xbe67e96c	-0.22647637
98	0x3e0f6528	0.14003432
99	0x3ec5bbf3	0.38619956
100	0xbde6ab7b	-0.11263176
101	0xbea1b883	-0.31586084
102	0x3ec90dd9	0.39268377
103	0x3ed363f0	0.41287184
104	0x3eaae580	0.3337822
105	0xbe42daa8	-0.19028723
106	0x3db6a070	0.0891732
107	0x3d7468f6	0.05967041
108	0x3e9fd6d9	0.31218603
109	0xbe2efb3a	-0.17088023
110	0xbe9a5987	-0.3014643
111	0x3e538c2c	0.2065894
112	0xbe09fb24	-0.13474709
113	0xbc734c51	-0.014849738
114	0x3e97aded	0.29624882
115	0xbe8c6e04	-0.27427685
116	0xbea9e115	-0.33179536
117	0x3e874372	0.26418644
118	0x3e0e6870	0.13907027
119	0x3e8eeeb2	0.27916485
120	0xbe10c405	-0.14137276
121	0x3ee070b1	0.43835977
122	0x3e6d1540	0.23152637
123	0xbcddea5b	-0.027089288
124	0x3eaa8820	0.3330698
125	0xbe087a05	-0.13327797
126	0x3eca150e	0.39469188
127	0xbe25406f	-0.1613786
128	0xbeb45cf5	-0.3522717
129	0x3dbd1e70	0.09234321
130	0x3e8de320	0.27712345
131	0x3d888e06	0.06667714
132	0x3ece7c0c	0.40329015
133	0x3da59861	0.080857046
134	0x3c9b65cc	0.018969439
135	0x3ec7be41	0.3901234
136	0xbe64a79c	-0.22329563
137	0xbd70356a	-0.05864469
138	0x3e8c669b	0.27422032
139	0x3e1906f9	0.14944066
140	0x3e87b43b	0.26504692
141	0x3db3eca2	0.087853685
142	0x3d357a07	0.044305827
143	0x3ea6bd86	0.3256647
144	0xbe901a45	-0.28145042
145	0x3e279d8e	0.16368696
146	0xbea3b032	-0.31970364
147	0xbe5f2e12	-0.21794918
148	0xbe832c0a	-0.25619537
149	0x3e20eb10	0.15714669
150	0xbe646fb0	-0.2230823
151	0x3e3f9d9d	0.18712468
152	0xbd725a94	-0.059168413
153	0x3e848d46	0.25889033
154	0x3e4ce985	0.20010956
155	0x3e9f8ade	0.31160635
156	0x3e6f5090	0.23370576
157	0x3e3aaf2f	0.1823089
158	0xbe715a3a	-0.23569575
159	0x3eb3a416	0.35086125
160	0xbe5b954f	-0.21443675
161	0x3e70389d	0.23459096
162	0x3ee0d98e	0.4391598
163	0x3ecd74ae	0.40128082
164	0x3ec73be3	0.38912877
165	0xbeac5b1a	-0.33663255
166	0xbe180dc0	-0.14848995
167	0x3e0d0c6f	0.13774274
168	0xbe9f496f	-0.31110713
169	0xbe3508bf	-0.17679118
170	0x3e17bb4a	0.14817539
171	0xbea3a223	-0.31959638
172	0xbea94d59	-0.33066824
173	0xbea9ed1e	-0.3318872
174	0x3e9a09f9	0.30085734
175	0x3da0dedf	0.07855009
176	0xbe596b0e	-0.21232244
177	0x3dd36c3f	0.10323381
178	0xbe02bcfc	-0.12767404
179	0xbddb7065	-0.10714797
180	0xbd1fce19	-0.03901491
181	0xbe3b0495	-0.18263467
182	0xbd814c79	-0.06313414
183	0x3ec4b778	0.38421226
184	0xbe51651a	-0.20448723
185	0x3e127a0b	0.14304368
186	0x3e83de91	0.25755742
187	0x3e617e7f	0.2202091
188	0xbe076cd7	-0.13225113
189	0x3e5425b2	0.20717505
190	0xbe617fff	-0.22021483
191	0xbe552768	-0.20815814
192	0x3ed2c6a9	0.4116719
193	0x3e81c03c	0.25341976
194	0x3e5d1562	0.21590188
195	0x3e2da5e1	0.16957809
196	0x3e93949a	0.28824311
197	0xbe464511	-0.19362284
198	0xbe55cdd2	-0.20879295
199	0xbe05870a	-0.13039795
200	0x3e3f6d1a	0.18693963
201	0xbcba20c3	-0.0227207
202	0x3e7482a6	0.23877963
203	0xbd3629ea	-0.044473566
204	0x3d523033	0.051315498
205	0xbe268bfd	-0.16264339
206	0x3ed4f02c	0.41589487
207	0x3e6b1d0c	0.22960299
208	0x3dfde9af	0.12398087
209	0x3eb3c414	0.35110533
210	0xbe374af0	-0.1789968
211	0x3ee38fb6	0.4444558
212	0x3e15c538	0.14626014
213	0x3e91562c	0.28386056
214	0xbe4b61ed	-0.19861574
215	0x3e86328c	0.2621044
216	0x3d9f2472	0.07770623
217	0x3eb1a373	0.34695014
218	0x3eac1bda	0.33615
219	0x3dce7b4c	0.10082111
220	0xbd772ede	-0.06034743
221	0x396ca135	0.00022566768
222	0xbe1a5060	-0.15069723
223	0x3e110a7c	0.14164156
224	0x3eb70597	0.35746452
225	0xbd526e93	-0.051374983
226	0xbe816591	-0.25272802
227	0x3eaaf7f1	0.3339229
228	0x3cd91795	0.026500503
229	0x3e76c14a	0.24097171
230	0xbe908c96	-0.2823226
231	0xbdaa415d	-0.08313248
232	0xbde27ace	-0.110585794
233	0xbe89fc70	-0.26950407
234	0x3e1dd52a	0.15413347
235	0xbe5a5ad8	-0.21323717
236	0x3e7471b7	0.23871504
237	0xbe3de17f	-0.18543051
238	0x3e98bca1	0.29831412
239	0xbe2ec8ca	-0.17068782
240	0xbe682e4c	-0.22673911
241	0x3e3b473b	0.18288891
242	0x3e6aa9f3	0.22916393
243	0xbe2b9710	-0.16756845
244	0xbe664c33	-0.22490005
245	0x3edd6bd6	0.43246335
246	0xbe3809cd	-0.17972489
247	0xbdf9af3b	-0.12191626
248	0x3edf2d4c	0.43589246
249	0xbe133008	-0.14373791
250	0xbda62693	-0.08112826
251	0xbe01e79e	-0.12686011
252	0x3ed07c85	0.4072
253	0x3e637e90	0.22216249
254	0x3e6c773b	0.23092358
255	0xbd8620fa	-0.065492585

conv1.bias f4 [32]
0	0xbded6967	-0.115923695
1	0xbae92c7d	-0.0017789748
2	0x3dd160d2	0.10223545
3	0xb8e0cdf2	-0.00010719513
4	0x3ed266a4	0.41093934
5	0x3d858b47	0.06520706
6	0xbcbdf525	-0.023188183
7	0x3e543c33	0.20726089
8	0xbd0e4320	-0.034731984
9	0x3cda33c6	0.026636016
10	0xbe93cb25	-0.28865924
11	0x3ce7eb1d	0.028310353
12	0x3e498d72	0.19682863
13	0xbd583035	-0.05278035
14	0x3d514f38	0.05110094
15	0x3bd4c18a	0.006492798
16	0xbe306c5e	-0.17228839
17	0xbe6d778b	-0.23190133
18	0xbe4f61d2	-0.20252159
19	0xbe8ac661	-0.27104476
20	0xbb06ede7	-0.0020588578
21	0x3e6034db	0.21895163
22	0xbd232c95	-0.03983744
23	0x3e66e2da	0.22547475
24	0xbe846ce2	-0.2586432
25	0xbe120c75	-0.14262564
26	0xbdb556b6	-0.088544294
27	0x3a8ea194	0.0010881894
28	0x3d896f7f	0.06710719
29	0xbdb49609	-0.088176794
30	0xbe174c6a	-0.14775243
31	0xbe95cf25	-0.292596

conv2.weight f4 [64, 32, 3, 3]
0	0xbcd21edd	-0.025649482
1	0xbcbef1d3	-0.02330867
2	0x3d146880	0.03623247
3	0xbdab0e9d	-0.08352397
4	0x3c760edd	0.015018192
5	0x3c33fce5	0.010985588
6	0xbcd1cba2	-0.025609795
7	0xbdc0a1df	-0.094058745
8	0x3c855b46	0.016278874
9	0x3d1a1445	0.037616987
10	0x3d7a646a	0.06113092
11	0x3dd5f7f6	0.104476854
12	0x3dcc67cc	0.09980735
13	0x3c8e729b	0.017388633
14	0x3d4a457c	0.04938267
15	0xbbf6bc47	-0.0075297686
16	0x3c358114	0.011078138
17	0xbd4009c3	-0.04688431
18	0x3d8f3d0e	0.06994067
19	0x3d2bdb63	0.04195727
20	0x3d2d61a0	0.04232943
21	0xbd603149	-0.054734502
22	0x3d0b7464	0.034046546
23	0x3d1a6982	0.037698276
24	0xbdeaefd0	-0.11471522
25	0xbd9f6196	-0.07782285
26	0xbd900d22	-0.07033755
27	0x3caa2494	0.020769395
28	0x3d98c09d	0.07458613
29	0x3d5b5944	0.053551927
30	0xbd588383	-0.052859794
31	0x3da8f7b4	0.082503706
32	0x3d0cb452	0.034351654
33	0xbd02d249	-0.031938825
34	0xbc2f146a	-0.010686019
35	0x3d04263c	0.032263026
36	0x39583de3	0.0002062242
37	0xbd1af589	-0.037831817
38	0xbc5f2c41	-0.013621391
39	0x3c94f173	0.018181538
40	0x3d8b7ace	0.068105325
41	0x3d027352	0.03184826
42	0x3d4bffd3	0.04980452
43	0x3cc20fff	0.023689268
44	0x3c94d8b1	0.018169733
45	0xbce7ce75	-0.028296689
46	0xbd66d158	-0.05635199
47	0x3cb9547d	0.022623295
48	0xbd4eb3e3	-0.050464522
49	0x3c1aa674	0.0094391
50	0x3ca678dc	0.020321302
51	0x3c8e9cdc	0.01740878
52	0xbd5fe390	-0.05466038
53	0x3d77f75b	0.06053863
54	0x3dbc125d	0.0918319
55	0x3d102055	0.035187084
56	0x3de9bdb3	0.114131354
57	0x3c0a2444	0.008431498
58	0x3d9d7859	0.0768897
59	0x3de7ed55	0.11324564
60	0xbd8b973b	-0.06815954
61	0xbcac3f79	-0.02102636
62	0xbcefe43a	-0.029283632
63	0x3d5507ce	0.052009396
64	0x3dae3001	0.0850525
65	0x3db59d85	0.08867935
66	0x3bfc3157	0.0076963115
67	0x3bc2dc13	0.005946645
68	0x3cab95b6	0.020945411
69	0xbde20088	-0.110352576
70	0xbddad5b8	-0.10685295
71	0xbd462d2e	-0.04838293
72	0xbcddb99d	-0.027066046
73	0x3b8403a3	0.004028754
74	0xbce0236b	-0.027360639
75	0x3caf4d49	0.021399157
76	0x3cc3461f	0.023837147
77	0xbd52a77a	-0.05142925
78	0xbc52b73b	-0.012861068
79	0xbc985063	-0.018593019
80	0xbc9faa43	-0.019490367
81	0xbd0742a6	-0.033022545
82	0xbb6216d9	-0.0034498482
83	0x3da46688	0.08027369
84	0xbc20e3db	-0.00981995
85	0x3d806411	0.06269086
86	0x3d8dc6d9	0.06922693
87	0xbd8061db	-0.062686644
88	0xbd14b793	-0.036307883
89	0xbbc3ea3a	-0.0059788497
90	0x3c0bfed0	0.008544639
91	0xbccd141e	-0.025034007
92	0xbcc1039c	-0.023561291
93	0xbd0f4d5d	-0.03498589
94	0xbc2d64c4	-0.010583106
95	0xbc7a735e	-0.015286295
96	0x3ba86675	0.005139167
97	0xbd527565	-0.051381487
98	0x3d452384	0.048129573
99	0x3c9fac6f	0.019491402
100	0x3da878a4	0.082261354
101	0x3d1a2572	0.037633367
102	0xbd9548b5	-0.072892584
103	0xbbc4567f	-0.0059917565
104	0x3a896156	0.0010481279
105	0xbd145906	-0.036217712
106	0xbd6da89e	-0.058022134
107	0xbdb56c2d	-0.088585235
108	0xbd8fafbf	-0.07015943
109	0xbce833da	-0.028345037
110	0xbd1c9377	-0.03822657
111	0xbc22f852	-0.0099468995
112	0x3c7efdbe	0.015563427
113	0xbd94ecb2	-0.072717085
114	0xbca14cbc	-0.01968991
115	0xbd7f8f4d	-0.06239252
116	0x3d04cd22	0.032422192
117	0xbc09bcfb	-0.008406873
118	0x3dae9a96	0.08525579
119	0x3db66058	0.08905095
120	0x3d13bdec	0.036069795
121	0x3caa62c4	0.020799048
122	0x3d6f00dc	0.05835043
123	0xbdfc469f	-0.123181574
124	0xbd344ee9	-0.044020567
125	0xbd84bedf	-0.06481718
126	0x3d46749b	0.048451047
127	0x3c6cb5ba	0.014447624
128	0xba745325	-0.0009320251
129	0xbd8bb811	-0.06822217
130	0x3a27fe08	0.0006408398
131	0x3cf3cb0d	0.029759908
132	0xbc8d13e8	-0.017221406
133	0xbd2ab94a	-0.04168061
134	0xbd08ee16	-0.03343018
135	0x3da90022	0.082519785
136	0x3d7a90fd	0.061173428
137	0x3ce88be5	0.02838702
138	0xbce7d7d4	-0.028301157
139	0xbd901abf	-0.070363514
140	0xbd1e8218	-0.038698286
141	0xbd08cb84	-0.033397213
142	0xbc84f985	-0.016232261
143	0xbc2addff	-0.010428905
144	0xbc5891ab	-0.013218324
145	0x3bc65f39	0.006053832
146	0x3d26d01e	0.04072582
147	0x3d305f7f	0.043059822
148	0xbd50eb95	-0.05100592
149	0xbd11e883	-0.03562213
150	0x3d2b6f03	0.041853916
151	0x3d35e651	0.0444091
152	0x3cd64688	0.026156679
153	0x3cfa037f	0.030519245
154	0xbc10a8bf	-0.008829295
155	0x3cc44ad8	0.02396147
156	0xbd192a01	-0.037393574
157	0xbd81ba05	-0.063343085
158	0xbb26b442	-0.0025437032
159	0xbd08f274	-0.033434346
160	0xbd547a87	-0.051874664
161	0xbd2bb316	-0.041918837
162	0x3c3d00df	0.011535852
163	0x3db9d578	0.09073919
164	0x3da70091	0.08154405
165	0x3dfa55ae	0.12223373
166	0x3d8d1c5e	0.06890176
167	0x3de89f0b	0.1135846
168	0x3c828329	0.015931683
169	0x3c3174bb	0.010831053
170	0xbd113e7a	-0.035459973
171	0xbcebf761	-0.028804483
172	0xbaf7046c	-0.0018845922
173	0x3cc57722	0.024104659
174	0x3c2c1f8e	0.01050557
175	0x3d332787	0.043738868
176	0xbd4b289f	-0.049599286
177	0xbd3f6e3a	-0.04673598
178	0xbd1ce520	-0.038304448
179	0xbd3cd2d6	-0.046099506
180	0x3d34e9fd	0.04416846
181	0x3d6085ed	0.05481522
182	0xbc1ad92e	-0.009451194
183	0xbd7fbe79	-0.06243751
184	0x3cfce363	0.030870145
185	0xbd995c9f	-0.07488369
186	0x3cba41ac	0.022736393
187	0xbca74a8d	-0.02042129
188	0xbd221601	-0.039571766
189	0x3bcc6a65	0.006238269
190	0x3d545ea2	0.05184806
191	0x3bb740e0	0.0055924505
192	0x3c759b7c	0.014990684
193	0xbd92404a	-0.071411684
194	0xbd2d7c33	-0.042354774
195	0xbb2c784e	-0.0026316824
196	0xbd3b5ec2	-0.045744665
197	0xbdc94f00	-0.09829521
198	0x3d3a2c10	0.045452178
199	0xb7015ce5	-7.710628e-06
200	0xbce8a41c	-0.028398566
201	0xbc1c7795	-0.009549995
202	0xbd788431	-0.060672943
203	0xbd81c839	-0.063370176
204	0xbda245df	-0.07923483
205	0xbc9a3b57	-0.018827124
206	0xbcaa89e3	-0.020817703
207	0xbb9d5c28	-0.0048022456
208	0x3d9b1d65	0.07573966
209	0x3da2a6d4	0.07941976
210	0xbd7a9769	-0.061179552
211	0x3d486f66	0.048934363
212	0xbce22ec1	-0.027610185
213	0xbd08c76e	-0.033393316
214	0xbd84d6b4	-0.06486264
215	0xbc8d9574	-0.017283179
216	0xbc318571	-0.010835038
217	0x3b34c8a4	0.0027585411
218	0xbc967375	-0.018365601
219	0xbd2874cd	-0.041127015
220	0x3ccdc6e2	0.025119249
221	0x3cb22be7	0.02174945
222	0xbdc994c7	-0.0984283
223	0xbd7370e9	-0.05943385
224	0x3bf76d13	0.0075508445
225	0x3d57ddc5	0.05270173
226	0x3d17d97a	0.037072636
227	0x3cdee654	0.027209438
228	0x3cff44a6	0.031160664
229	0xbc2117a7	-0.009832299
230	0x3cf4efa7	0.029899431
231	0xbd190f5b	-0.03736816
232	0xbcd30e53	-0.025763666
233	0xbd57e5e4	-0.052709475
234	0xb9d1ea56	-0.0004003818
235	0xbc73ba0e	-0.014875902
236	0x3c327475	0.010892023
237	0xbd130b88	-0.03589967
238	0x3cf72e7c	0.030173533
239	0x3d412abe	0.047159903
240	0xbd309a0e	-0.043115668
241	0x3b37d54d	0.002805072
242	0x3bd3ecee	0.006467453
243	0x3c7ec968	0.015550949
244	0xbcbe1421	-0.023202958
245	0xbd192995	-0.03739317
246	0xbca79adf	-0.02045959
247	0x3d09f6a1	0.03368247
248	0x3d901b11	0.070364125
249	0xbc6e6530	-0.014550492
250	0xbd691f4e	-0.05691462
251	0x3d7ce61b	0.061742883
252	0x3d719610	0.058981
253	0x3dbcebfb	0.09224697
254	0x3d07c613	0.033147883
255	0x3dcfcea3	0.10146835

conv2.bias f4 [64]
0	0xbcd5b8a4	-0.02608902
1	0x3c4cfdcc	0.012511682
2	0x3d12aa08	0.035806686
3	0x3cfe7ece	0.031066325
4	0xbbf29b37	-0.007403757
5	0xbd933409	-0.07187659
6	0xbcda48dc	-0.02664607
7	0x3d70bce9	0.05877391
8	0x3d5a8ebc	0.05335878
9	0xbca2c3d7	-0.019868774
10	0xbd61e532	-0.05515022
11	0xbd482df1	-0.04887194
12	0x3b5d8004	0.0033798227
13	0x3c9665d6	0.018359106
14	0xbd0bcefc	-0.034132943
15	0xbc484f8f	-0.0122259995
16	0xbc12c4c9	-0.00895805
17	0x3d7ad191	0.061235014
18	0x3c7353fc	0.014851566
19	0xbdd0c01e	-0.101928934
20	0xbd4ead2a	-0.05045811
21	0xbc3bb210	-0.011456028
22	0xbcaad492	-0.020853315
23	0xbd5b346c	-0.05351679
24	0xbbcf4f55	-0.006326596
25	0xbd85216f	-0.065005176
26	0x3c786fa2	0.015163334
27	0xbc133276	-0.008984199
28	0xbd3a3541	-0.045460943
29	0xbda519b9	-0.08061547
30	0xbd4a0875	-0.04932447
31	0x3d2c3207	0.042039897
32	0x3a18e6ef	0.00058327516
33	0x3c646692	0.01394047
34	0xbdc69602	-0.096965805
35	0xbd8f65ee	-0.070018634
36	0x3d22da9e	0.03975927
37	0xbd0cff80	-0.03442335
38	0x3d61ba66	0.055109404
39	0xbc74760c	-0.014920723
40	0xbd17e884	-0.03708698
41	0x3c1f77e8	0.009733178
42	0x3b9011c5	0.0043966495
43	0xbce1f57f	-0.027582882
44	0x3cf2b616	0.029627841
45	0xbc600877	-0.013673893
46	0xbced2139	-0.028946506
47	0xbaabef7c	-0.0013117637
48	0xbc02f8ab	-0.007993857
49	0xb8b8a318	-8.804182e-05
50	0xbc576daa	-0.013148705
51	0xbcb4615d	-0.022019083
52	0x3c0cdc4b	0.008597444
53	0xbca39993	-0.01997069
54	0xbdb51a83	-0.08842947
55	0xbd5a9529	-0.053364906
56	0xbcf28d55	-0.029608408
57	0xbbcfa9bb	-0.006337372
58	0xbd2f0c7c	-0.042736515
59	0x3d803f23	0.062620424
60	0xbcb52a08	-0.022114769
61	0xbdac46db	-0.08411952
62	0xbdb4c92e	-0.088274345
63	0xbc3f6f21	-0.01168421

fc1.weight f4 [10, 1600]
0	0x3b3f8524	0.0029223645
1	0xbd0d7dfe	-0.034543984
2	0xbc150dac	-0.009097498
3	0xbccef9b8	-0.02526556
4	0xbcbdaa76	-0.023152571
5	0xbce4d95f	-0.027935682
6	0xbd1443f2	-0.03619761
7	0x3c48b55c	0.012250271
8	0x3d084bd3	0.033275437
9	0x3c842553	0.016131079
10	0xbc588c1e	-0.013217
11	0xbcd948ab	-0.026523909
12	0xbb7ad361	-0.0038272964
13	0x3d246502	0.04013539
14	0x3c1cfbcf	0.00958152
15	0xbbadc3e9	-0.0053028953
16	0xbd0689ed	-0.03284638
17	0xbdab1d8d	-0.08355246
18	0xbd8dfcaa	-0.069329575
19	0xbc16e5b1	-0.009210036
20	0x3d2f1463	0.04274405
21	0xbc8bff54	-0.017089523
22	0xbbb3b2f5	-0.00548398
23	0xbc913e90	-0.017730027
24	0x3cf59fb8	0.029983386
25	0x3b811add	0.00393997
26	0xba2480df	-0.0006275307
27	0xbbd9367c	-0.0066288095
28	0xbbb45454	-0.0055032168
29	0xbd46b969	-0.048516665
30	0x3c2547a1	0.010087878
31	0x3b914cef	0.00443422
32	0xbcfedffa	-0.03111266
33	0xbd3adfe6	-0.045623682
34	0xbca64a8a	-0.020299215
35	0x3ba88c76	0.0051436974
36	0x3bc5a134	0.00603118
37	0x3d4ae4ac	0.049534485
38	0x3c518259	0.012787425
39	0x3b514ab3	0.0031935393
40	0x3c3c90bf	0.0115091195
41	0x3d08be96	0.033384882
42	0x3d7bef89	0.061507735
43	0xbd19c54e	-0.03754168
44	0x3c810f85	0.01575447
45	0xbc4d20e3	-0.012520048
46	0xbc4f2765	-0.01264367
47	0x3b7a7d63	0.003822171
48	0x3c792d5c	0.015208568
49	0x3d1f6baa	0.038921036
50	0xbc1731fe	-0.009228228
51	0x3ca7491b	0.020420602
52	0x3bda64e7	0.0066648605
53	0x3c7d1393	0.015446561
54	0xbbf1d7ed	-0.0073804767
55	0x3c8a914a	0.016914982
56	0x3cc60fec	0.024177514
57	0x3bd3a17c	0.0064584594
58	0xbc82f922	-0.015987936
59	0xbc2122ab	-0.009834926
60	0x3bb5cca6	0.0055480776
61	0xbc2505a5	-0.010072147
62	0xbc473247	-0.012157983
63	0xbc6dc405	-0.014512067
64	0xbd11c4bf	-0.035588022
65	0x3aa73d39	0.0012759335
66	0x3bbe989b	0.005816532
67	0x3c109190	0.008823767
68	0x3c4f50d3	0.012653547
69	0xbaac29af	-0.0013134981
70	0xbc7afa95	-0.0153185325
71	0xbac34918	-0.0014899103
72	0xbcdb10d7	-0.026741428
73	0x3c188523	0.009309086
74	0x3d29c5ba	0.041448332
75	0x3b62532d	0.003453444
76	0xbcba9479	-0.022775875
77	0x3c81cb26	0.015843939
78	0xbcc8b4c2	-0.024500255
79	0xbbc5bdb2	-0.0060345763
80	0x3c0fd253	0.008778173
81	0xbc4565f7	-0.012048236
82	0x3cb50b7b	0.0221002
83	0x3ce07f24	0.027404375
84	0xbabd5cd1	-0.0014447217
85	0x3c05302b	0.00812916
86	0x3ac8b34f	0.0015312227
87	0xbd324f9c	-0.043532953
88	0xbc6d5a9e	-0.014486937
89	0x3d39477d	0.045234192
90	0x3b8d3dc1	0.00431034
91	0xbc8aa7ef	-0.01692578
92	0xbd94f91a	-0.07274075
93	0x3d0c1d9d	0.03420793
94	0x3d396c56	0.045269333
95	0x3cf4bcfd	0.029875273
96	0xbb9d2443	-0.0047955825
97	0x3bc7e9c1	0.0061008637
98	0x3d01e3b3	0.03171129
99	0xbcc261b4	-0.02372823
100	0x3cbc050c	0.022951625
101	0x3cadfc04	0.021238334
102	0x3bfec646	0.007775101
103	0xbb0cea02	-0.0021501784
104	0xbb01fa36	-0.0019832975
105	0x3c382235	0.011238624
106	0xbc56a453	-0.013100701
107	0xbc3d82dc	-0.011566844
108	0x3c5de4bd	0.013543305
109	0x3c812515	0.015764752
110	0x3ad8cbc6	0.0016540221
111	0x3c25c8ff	0.010118722
112	0x3c40060b	0.011720191
113	0x3c25ed46	0.010127371
114	0xbb547e09	-0.0032423756
115	0xbc0d0726	-0.008607661
116	0xbccb6f34	-0.0248333
117	0x3ca51814	0.020153083
118	0xbbd6b4c1	-0.0065523093
119	0xbcb95475	-0.02262328
120	0x3b454836	0.0030102856
121	0x3ca66006	0.02030946
122	0xbc15805e	-0.009124843
123	0x3b224575	0.0024760638
124	0xbccb397e	-0.024807688
125	0xbc872a17	-0.016499562
126	0xbcca8cd1	-0.02472535
127	0xbc34d77d	-0.011037705
128	0x3ca82189	0.020523803
129	0x3c65c0a7	0.014022983
130	0x3b91b19b	0.004446221
131	0x3cb3edbd	0.021963948
132	0xbc7e9e05	-0.0155406045
133	0x3d405357	0.04695448
134	0x3d18c2cd	0.03729515
135	0x3cbf06da	0.023318697
136	0xbcaf4529	-0.021395283
137	0xbcf1d81f	-0.029522
138	0x3bc34384	0.005958976
139	0x3cf28ce7	0.029608203
140	0x3cf0e53e	0.029406186
141	0x3c810bdf	0.01575273
142	0xbd0316c3	-0.03200413
143	0xbd485f9f	-0.048919316
144	0x3d266734	0.040625766
145	0x3bbf2582	0.0058333287
146	0x3cbd0cd6	0.02307741
147	0x3d1c3fc8	0.038146764
148	0x3b3cd7fe	0.0028815265
149	0x3c8d102c	0.017219625
150	0xbc015cb1	-0.0078956345
151	0x3b32eda0	0.002730228
152	0xbc713365	-0.014721726
153	0x3c9fb50a	0.019495506
154	0x3c74cf4f	0.014942004
155	0x3ca6f0cf	0.020378498
156	0xbbda74e9	-0.006666769
157	0xba854484	-0.0010167514
158	0xbc95f42b	-0.018304905
159	0xbc5d9cee	-0.0135261845
160	0x3d32e6fa	0.043677308
161	0x3d45c5a3	0.048284184
162	0x3ad5fa59	0.001632522
163	0xbd2d63f1	-0.04233164
164	0x3d7e2fe0	0.062057376
165	0x3ccfcaa8	0.025365189
166	0x3d72ef50	0.059310257
167	0xbd1e188b	-0.038597625
168	0x3c8e11e0	0.017342508
169	0x3d7f32c7	0.062304284
170	0x3c2d4596	0.010575673
171	0x3cc265e0	0.023730218
172	0xbd314bb8	-0.0432851
173	0x3abf816c	0.0014610714
174	0x3d1f4bc7	0.038890626
175	0xbcaa2011	-0.020767244
176	0xba7ccb61	-0.0009643343
177	0xbc99743b	-0.01873218
178	0x3b31b8dd	0.0027118244
179	0x3c454f89	0.012042888
180	0xbc7ffa2b	-0.01562361
181	0x3c69e9cf	0.014276936
182	0x3c04353c	0.008069333
183	0x3bf24c9d	0.007394387
184	0xbd0ddae2	-0.03463257
185	0xbcdd66bc	-0.027026527
186	0x3cb351ba	0.021889556
187	0x3d66ec5f	0.056377765
188	0x3b75ea60	0.0037523732
189	0xbc98ec82	-0.018667463
190	0xbb1aac0d	-0.0023601085
191	0x3d1a3bbf	0.037654635
192	0x3dc1c4f6	0.094613954
193	0xbd390f31	-0.045180503
194	0x3c1fa8f4	0.009744871
195	0xbc81074d	-0.015750552
196	0xbb57f1c2	-0.0032950495
197	0xbc51e908	-0.012811907
198	0xbd0dc72d	-0.034613777
199	0xbbd655fd	-0.0065410123
200	0x3c181b28	0.009283818
201	0x3bd8e994	0.0066196416
202	0xbc8c0899	-0.017093943
203	0x3cb496fe	0.022044655
204	0x3d451935	0.048119742
205	0xbc86cc28	-0.016454771
206	0xbcb5bf79	-0.022186028
207	0xb88264ca	-6.2176565e-05
208	0xbb5fabde	-0.003412954
209	0x3cd3bc96	0.02584676
210	0xbc274860	-0.010210127
211	0xbd2fb6f4	-0.042899087
212	0x3ceec19b	0.029145053
213	0xbd5f71b8	-0.05455181
214	0xbd29260d	-0.041296054
215	0xbccb579a	-0.024822045
216	0x3ce61b86	0.028089296
217	0x3ce2deed	0.02769419
218	0xbd5b0a46	-0.053476594
219	0xbd7095a2	-0.05873645
220	0x3c65ceb1	0.01402633
221	0x3c3b3f6a	0.011428693
222	0x3d219180	0.0394454
223	0xbcd45177	-0.025917752
224	0xbcace224	-0.021103926
225	0xbc3d2f43	-0.011546913
226	0xbcfb834e	-0.03070226
227	0x3a4a5327	0.0007718079
228	0xbc1433d8	-0.009045564
229	0xbd53586c	-0.051597998
230	0x3a73e9e6	0.0009304568
231	0xbc8569a6	-0.016285729
232	0xbc8a90cb	-0.016914746
233	0x3cdd48de	0.027012285
234	0xbd0a1cd1	-0.033718888
235	0xbcd069d9	-0.025441097
236	0xbcfefec8	-0.031127349
237	0xbbcbb489	-0.00621659
238	0xbccc0dcb	-0.02490892
239	0xbd599795	-0.053123076
240	0xbd2b357b	-0.04179905
241	0xbd367ab7	-0.044550624
242	0xbab00faf	-0.0013432408
243	0xbc92741b	-0.017877629
244	0x3c29f181	0.01037252
245	0xbc529819	-0.012853646
246	0x3c2d79d3	0.010588127
247	0x3c18c5ff	0.00932455
248	0x3d269db8	0.040677756
249	0x3ccb562f	0.024821369
250	0xbc16580a	-0.009176264
251	0x3c6bf773	0.014402258
252	0x3bb62c73	0.005559498
253	0xbcb038f5	-0.021511534
254	0x3cb3521b	0.021889737
255	0x3c4ad94d	0.01238091

fc1.bias f4 [10]
0	0xbc9a070f	-0.018802194
1	0x3d79cfa0	0.060989022
2	0xbd08bbd8	-0.033382267
3	0xbd1c45c6	-0.03815248
4	0x3b5b779c	0.003348804
5	0xba26492e	-0.0006343302
6	0x3c9f33e9	0.019433932
7	0xbba1c2f4	-0.0049365703
8	0xbc9d56c4	-0.019206412
9	0x3cb5a7fc	0.022174828
